…
: 123456, 'log_interval': 1, 'save_interval': 10, 'procs': 16, 'frames': 500000, 'epochs': 4, 'batch_size': 256, 'frames_per_proc': 128, 'discount': 0.99, 'lr': 0.0007, 'gae_lambda': 0.99, 'entropy_coef': 0.01, 'value_loss_coef': 0.5, 'max_grad_norm': 0.5, 'optim_eps': 1e-08, 'optim_alpha': 0.99, 'clip_eps': 0.2, 'recurrence': 1, 'text': False, 'optimizer_type': 'rmsprop', 'reshape_reward': True, 'date': datetime.date(2023, 11, 11), 'mem': False}

Device: cpu

Environments loaded

Training status loaded

Observations preprocessor loaded
Model loaded

ACModel(
  (image_conv): Sequential(
    (0): Conv2d(3, 16, kernel_size=(2, 2), stride=(1, 1))
    (1): ReLU()
    (2): MaxPool2d(kernel_size=(2, 2), stride=(2, 2), padding=0, dilation=1, ceil_mode=False)
    (3): Conv2d(16, 32, kernel_size=(2, 2), stride=(1, 1))
    (4): ReLU()
    (5): Conv2d(32, 64, kernel_size=(2, 2), stride=(1, 1))
    (6): ReLU()
  )
  (actor): Sequential(
    (0): Linear(in_features=64, out_features=64, bias=True)
    (1): Tanh()
    (2): Linear(in_features=64, out_features=7, bias=True)
  )
  (critic): Sequential(
    (0): Linear(in_features=64, out_features=64, bias=True)
    (1): Tanh()
    (2): Linear(in_features=64, out_features=1, bias=True)
  )
)

Optimizer loaded

U 1 | F 002048 | FPS 4245 | D 0 | rR:μσmM 0.06 0.16 0.00 0.61 | F:μσmM 10.9 30.0 0.0 111.0 | H 1.920 | V -0.535 | pL 30.820 | vL 1145.762 | ∇ 7.792
U 2 | F 004096 | FPS 2551 | D 1 | rR:μσmM 0.01 0.03 0.00 0.14 | F:μσmM 143.6 1.7 137.0 144.0 | H 1.857 | V -1.158 | pL 26.689 | vL 935.553 | ∇ 11.413
U 3 | F 006144 | FPS 5022 | D 1 | rR:μσmM 0.04 0.12 0.00 0.44 | F:μσmM 138.8 14.4 90.0 144.0 | H 1.838 | V -1.476 | pL 24.449 | vL 776.895 | ∇ 9.491
…
{'algo': 'ppo', 'env': 'MiniGrid-WallGapS6-v0', 'model': 'wallgap-doorkey-redblue-crossing', 'early_stop': False, 'seed': 345678, 'log_interval': 1, 'save_interval': 10, 'procs': 16, 'frames': 500000, 'epochs': 4, 'batch_size': 256, 'frames_per_proc': 128, 'discount': 0.99, 'lr': 0.0007, 'gae_lambda': 0.99, 'entropy_coef': 0.01, 'value_loss_coef': 0.5, 'max_grad_norm': 0.5, 'optim_eps': 1e-08, 'optim_alpha': 0.99, 'clip_eps': 0.2, 'recurrence': 1, 'text': False, 'optimizer_type': 'rmsprop', 'reshape_reward': True, 'date': datetime.date(2023, 11, 11), 'mem': False}

Device: cpu

Environments loaded

Training status loaded

Observations preprocessor loaded
Model loaded

ACModel(
  (image_conv): Sequential(
    (0): Conv2d(3, 16, kernel_size=(2, 2), stride=(1, 1))
    (1): ReLU()
    (2): MaxPool2d(kernel_size=(2, 2), stride=(2, 2), padding=0, dilation=1, ceil_mode=False)
    (3): Conv2d(16, 32, kernel_size=(2, 2), stride=(1, 1))
    (4): ReLU()
    (5): Conv2d(32, 64, kernel_size=(2, 2), stride=(1, 1))
    (6): ReLU()
  )
  (actor): Sequential(
    (0): Linear(in_features=64, out_features=64, bias=True)
    (1): Tanh()
    (2): Linear(in_features=64, out_features=7, bias=True)
  )
  (critic): Sequential(
    (0): Linear(in_features=64, out_features=64, bias=True)
    (1): Tanh()
    (2): Linear(in_features=64, out_features=1, bias=True)
  )
)

Optimizer loaded

Environments loaded

Training status loaded

Observations preprocessor loaded
Model loaded

ACModel(
  (image_conv): Sequential(
    (0): Conv2d(3, 16, kernel_size=(2, 2), stride=(1, 1))
    (1): ReLU()
    (2): MaxPool2d(kernel_size=(2, 2), stride=(2, 2), padding=0, dilation=1, ceil_mode=False)
    (3): Conv2d(16, 32, kernel_size=(2, 2), stride=(1, 1))
    (4): ReLU()
    (5): Conv2d(32, 64, kernel_size=(2, 2), stride=(1, 1))
    (6): ReLU()
  )
  (actor): Sequential(
    (0): Linear(in_features=64, out_features=64, bias=True)
    (1): Tanh()
    (2): Linear(in_features=64, out_features=7, bias=True)
  )
  (critic): Sequential(
    (0): Linear(in_features=64, out_features=64, bias=True)
    (1): Tanh()
    (2): Linear(in_features=64, out_features=1, bias=True)
  )
)

Optimizer loaded

U 341 | F 698368 | FPS 3098 | D 0 | rR:μσmM 0.94 0.03 0.85 0.98 | F:μσmM 22.9 11.7 9.0 59.0 | H 0.696 | V -20.129 | pL -7.674 | vL 118.707 | ∇ 41.074
U 342 | F 700416 | FPS 3396 | D 1 | rR:μσmM 0.95 0.02 0.86 0.98 | F:μσmM 21.3 8.0 9.0 55.0 | H 0.630 | V -17.607 | pL -7.611 | vL 108.471 | ∇ 34.916
U 343 | F 702464 | FPS 3504 | D 1 | rR:μσmM 0.95 0.02 0.88 0.98 | F:μσmM 20.0 7.9 8.0 46.0 | H 0.661 | V -18.470 | pL -5.380 | vL 100.177 | ∇ 107.520
…
