…
.2, 'recurrence': 1, 'text': False, 'use_rim': False, 'cascade_depth': 2, 'flow_factor': 1.0, 'mesh_factor': 4.0, 'lr_decay': True, 'imp_sampling': 'clipped', 'imp_clips': [-5, 5], 'dynamic_neglogpacs': False, 'full_kl': False, 'optimizer_type': 'rmsprop', 'scheduler_type': False, 'var_init': 'equal', 'mem': False, 'lrs': [0.0007, 0.000175], 'lrs_fn': <function decayfn_arr_2.<locals>.f at 0x1327efcb0>, 'clipranges': [0.2, 0.05], 'kl_betas': None}

Device: cpu

Environments loaded

Training status loaded

Observations preprocessor loaded
Model loaded

ACModel(
  (image_conv): Sequential(
    (0): Conv2d(3, 16, kernel_size=(2, 2), stride=(1, 1))
    (1): ReLU()
    (2): MaxPool2d(kernel_size=(2, 2), stride=(2, 2), padding=0, dilation=1, ceil_mode=False)
    (3): Conv2d(16, 32, kernel_size=(2, 2), stride=(1, 1))
    (4): ReLU()
    (5): Conv2d(32, 64, kernel_size=(2, 2), stride=(1, 1))
    (6): ReLU()
  )
  (actor): Sequential(
    (0): Linear(in_features=64, out_features=64, bias=True)
    (1): Tanh()
    (2): Linear(in_features=64, out_features=7, bias=True)
  )
  (critic): Sequential(
    (0): Linear(in_features=64, out_features=64, bias=True)
    (1): Tanh()
    (2): Linear(in_features=64, out_features=1, bias=True)
  )
)

Optimizer loaded

U 1 | F 002048 | FPS 1937 | D 1 | rR:μσmM 0.03 0.11 0.00 0.44 | F:μσmM 5.6 21.5 0.0 89.0 | H 1.917 | V -0.087 | pL -0.060 | vL 0.006 | ∇ 0.214
U 2 | F 004096 | FPS 2020 | D 2 | rR:μσmM 0.05 0.15 0.00 0.51 | F:μσmM 137.1 19.5 79.0 144.0 | H 1.923 | V -0.037 | pL -0.067 | vL 0.007 | ∇ 0.230
U 3 | F 006144 | FPS 2101 | D 3 | rR:μσmM 0.03 0.07 0.00 0.23 | F:μσmM 141.7 6.2 123.0 144.0 | H 1.924 | V -0.017 | pL -0.018 | vL 0.001 | ∇ 0.182
…
im': False, 'cascade_depth': 4, 'flow_factor': 1.0, 'mesh_factor': 4.0, 'lr_decay': True, 'imp_sampling': 'clipped', 'imp_clips': [-5, 5], 'dynamic_neglogpacs': False, 'full_kl': False, 'optimizer_type': 'rmsprop', 'scheduler_type': False, 'var_init': 'equal', 'mem': False, 'lrs': [0.0007, 0.000175, 4.375e-05, 1.09375e-05], 'lrs_fn': <function decayfn_arr_2.<locals>.f at 0x1339b5c20>, 'clipranges': [0.2, 0.05, 0.0125, 0.003125], 'kl_betas': None}

Device: cpu

Environments loaded

Training status loaded

Observations preprocessor loaded
Model loaded

ACModel(
  (image_conv): Sequential(
    (0): Conv2d(3, 16, kernel_size=(2, 2), stride=(1, 1))
    (1): ReLU()
    (2): MaxPool2d(kernel_size=(2, 2), stride=(2, 2), padding=0, dilation=1, ceil_mode=False)
    (3): Conv2d(16, 32, kernel_size=(2, 2), stride=(1, 1))
    (4): ReLU()
    (5): Conv2d(32, 64, kernel_size=(2, 2), stride=(1, 1))
    (6): ReLU()
  )
  (actor): Sequential(
    (0): Linear(in_features=64, out_features=64, bias=True)
    (1): Tanh()
    (2): Linear(in_features=64, out_features=7, bias=True)
  )
  (critic): Sequential(
    (0): Linear(in_features=64, out_features=64, bias=True)
    (1): Tanh()
    (2): Linear(in_features=64, out_features=1, bias=True)
  )
)

Environments loaded

Training status loaded

Observations preprocessor loaded
Model loaded

ACModel(
  (image_conv): Sequential(
    (0): Conv2d(3, 16, kernel_size=(2, 2), stride=(1, 1))
    (1): ReLU()
    (2): MaxPool2d(kernel_size=(2, 2), stride=(2, 2), padding=0, dilation=1, ceil_mode=False)
    (3): Conv2d(16, 32, kernel_size=(2, 2), stride=(1, 1))
    (4): ReLU()
    (5): Conv2d(32, 64, kernel_size=(2, 2), stride=(1, 1))
    (6): ReLU()
  )
  (actor): Sequential(
    (0): Linear(in_features=64, out_features=64, bias=True)
    (1): Tanh()
    (2): Linear(in_features=64, out_features=7, bias=True)
  )
  (critic): Sequential(
    (0): Linear(in_features=64, out_features=64, bias=True)
    (1): Tanh()
    (2): Linear(in_features=64, out_features=1, bias=True)
  )
)

Environments loaded

Training status loaded

Observations preprocessor loaded
Model loaded

ACModel(
  (image_conv): Sequential(
    (0): Conv2d(3, 16, kernel_size=(2, 2), stride=(1, 1))
    (1): ReLU()
    (2): MaxPool2d(kernel_size=(2, 2), stride=(2, 2), padding=0, dilation=1, ceil_mode=False)
    (3): Conv2d(16, 32, kernel_size=(2, 2), stride=(1, 1))
    (4): ReLU()
    (5): Conv2d(32, 64, kernel_size=(2, 2), stride=(1, 1))
    (6): ReLU()
  )
  (actor): Sequential(
    (0): Linear(in_features=64, out_features=64, bias=True)
    (1): Tanh()
    (2): Linear(in_features=64, out_features=7, bias=True)
  )
  (critic): Sequential(
    (0): Linear(in_features=64, out_features=64, bias=True)
    (1): Tanh()
    (2): Linear(in_features=64, out_features=1, bias=True)
  )
)

Hidden models loaded

Optimizer loaded

Optimizer loaded

U 1 | F 016384 | FPS 1381 | D 11 | rR:μσmM 0.07 0.20 0.00 0.94 | F:μσmM 134.6 26.5 10.0 144.0 | H 1.928 | V 0.133 | pL 0.037 | vL 0.003 | ∇ 0.165
U 2 | F 032768 | FPS 1375 | D 23 | rR:μσmM 0.09 0.21 0.00 0.94 | F:μσmM 132.5 28.1 10.0 144.0 | H 1.924 | V 0.115 | pL 0.028 | vL 0.003 | ∇ 0.167
U 3 | F 049152 | FPS 1391 | D 35 | rR:μσmM 0.10 0.22 0.00 0.89 | F:μσmM 131.7 29.0 18.0 144.0 | H 1.926 | V 0.093 | pL 0.019 | vL 0.003 | ∇ 0.166
…
