…
MiniGrid-DoorKey-6x6-v0', 'model': 'test_lstm', 'interlaced': True, 'seed': 1, 'log_interval': 1, 'save_interval': 10, 'procs': 16, 'frames': 1000000.0, 'epochs': 4, 'batch_size': 256, 'frames_per_proc': 128, 'discount': 0.99, 'lr': 0.0007, 'gae_lambda': 0.99, 'entropy_coef': 0.01, 'value_loss_coef': 0.5, 'max_grad_norm': 0.5, 'optim_eps': 1e-08, 'optim_alpha': 0.99, 'clip_eps': 0.2, 'recurrence': 32, 'text': False, 'use_rim': False, 'mem': True}

Device: cpu

Environments loaded

Training status loaded

Observations preprocessor loaded
Model loaded

ACModel(
  (image_conv): Sequential(
    (0): Conv2d(3, 16, kernel_size=(2, 2), stride=(1, 1))
    (1): ReLU()
    (2): MaxPool2d(kernel_size=(2, 2), stride=(2, 2), padding=0, dilation=1, ceil_mode=False)
    (3): Conv2d(16, 32, kernel_size=(2, 2), stride=(1, 1))
    (4): ReLU()
    (5): Conv2d(32, 64, kernel_size=(2, 2), stride=(1, 1))
    (6): ReLU()
  )
  (memory_rnn): LSTMCell(64, 64)
  (actor): Sequential(
    (0): Linear(in_features=64, out_features=64, bias=True)
    (1): Tanh()
    (2): Linear(in_features=64, out_features=7, bias=True)
  )
  (critic): Sequential(
    (0): Linear(in_features=64, out_features=64, bias=True)
    (1): Tanh()
    (2): Linear(in_features=64, out_features=1, bias=True)
  )
)

Optimizer loaded

U 1 | F 002048 | FPS 0639 | D 3 | rR:μσmM 0.00 0.00 0.00 0.00 | F:μσmM 0.0 0.0 0 0 | H 1.932 | V 0.057 | pL 0.030 | vL 0.000 | ∇ 0.006
U 2 | F 004096 | FPS 0725 | D 6 | rR:μσmM 0.00 0.00 0.00 0.00 | F:μσmM 0.0 0.0 0 0 | H 1.944 | V 0.035 | pL 0.018 | vL 0.000 | ∇ 0.003
U 3 | F 006144 | FPS 0720 | D 8 | rR:μσmM 0.08 0.20 0.00 0.76 | F:μσmM 65.1 136.5 0.0 375.0 | H 1.941 | V 0.035 | pL -0.008 | vL 0.006 | ∇ 0.026
U 4 | F 008192 | FPS 0722 | D 11 | rR:μσmM 0.10 0.21 0.00 0.76 | F:μσmM 96.7 171.7 0.0 505.0 | H 1.940 | V 0.064 | pL 0.020 | vL 0.001 | ∇ 0.019
U 5 | F 010240 | FPS 0724 | D 14 | rR:μσmM 0.04 0.11 0.00 0.38 | F:μσmM 469.4 134.5 23.0 528.0 | H 1.940 | V 0.039 | pL 0.022 | vL 0.000 | ∇ 0.004
U 6 | F 012288 | FPS 0726 | D 17 | rR:μσmM 0.01 0.05 0.00 0.20 | F:μσmM 233.9 55.0 177.0 371.0 | H 1.943 | V 0.016 | pL 0.018 | vL 0.001 | ∇ 0.016
U 7 | F 014336 | FPS 0654 | D 20 | rR:μσmM 0.01 0.04 0.00 0.16 | F:μσmM 70.4 54.6 29.0 272.0 | H 1.944 | V 0.012 | pL 0.006 | vL 0.000 | ∇ 0.008
Environments loaded

Training status loaded

Observations preprocessor loaded
Model loaded

ACModel(
  (image_conv): Sequential(
    (0): Conv2d(3, 16, kernel_size=(2, 2), stride=(1, 1))
    (1): ReLU()
    (2): MaxPool2d(kernel_size=(2, 2), stride=(2, 2), padding=0, dilation=1, ceil_mode=False)
    (3): Conv2d(16, 32, kernel_size=(2, 2), stride=(1, 1))
    (4): ReLU()
    (5): Conv2d(32, 64, kernel_size=(2, 2), stride=(1, 1))
    (6): ReLU()
  )
  (memory_rnn): LSTMCell(64, 64)
  (actor): Sequential(
    (0): Linear(in_features=64, out_features=64, bias=True)
    (1): Tanh()
    (2): Linear(in_features=64, out_features=7, bias=True)
  )
  (critic): Sequential(
    (0): Linear(in_features=64, out_features=64, bias=True)
    (1): Tanh()
    (2): Linear(in_features=64, out_features=1, bias=True)
  )
)

Optimizer loaded

U 1 | F 002048 | FPS 0646 | D 3 | rR:μσmM 0.08 0.24 0.00 0.98 | F:μσmM 6.9 25.9 0.0 107.0 | H 1.938 | V 0.053 | pL 0.018 | vL 0.001 | ∇ 0.022
U 2 | F 004096 | FPS 0723 | D 6 | rR:μσmM 0.14 0.31 0.00 0.98 | F:μσmM 18.2 49.3 0.0 181.0 | H 1.931 | V 0.031 | pL 0.001 | vL 0.008 | ∇ 0.026
U 3 | F 006144 | FPS 0725 | D 8 | rR:μσmM 0.31 0.38 0.00 0.98 | F:μσmM 95.1 132.4 0.0 343.0 | H 1.919 | V 0.118 | pL 0.014 | vL 0.009 | ∇ 0.047
U 4 | F 008192 | FPS 0673 | D 11 | rR:μσmM 0.31 0.38 0.00 0.98 | F:μσmM 95.1 132.4 0.0 343.0 | H 1.935 | V 0.061 | pL 0.032 | vL 0.000 | ∇ 0.009
Environments loaded

Training status loaded

Observations preprocessor loaded
Model loaded

ACModel(
  (image_conv): Sequential(
    (0): Conv2d(3, 16, kernel_size=(2, 2), stride=(1, 1))
    (1): ReLU()
    (2): MaxPool2d(kernel_size=(2, 2), stride=(2, 2), padding=0, dilation=1, ceil_mode=False)
    (3): Conv2d(16, 32, kernel_size=(2, 2), stride=(1, 1))
    (4): ReLU()
    (5): Conv2d(32, 64, kernel_size=(2, 2), stride=(1, 1))
    (6): ReLU()
  )
  (memory_rnn): LSTMCell(64, 64)
  (actor): Sequential(
    (0): Linear(in_features=64, out_features=64, bias=True)
    (1): Tanh()
    (2): Linear(in_features=64, out_features=7, bias=True)
  )
  (critic): Sequential(
    (0): Linear(in_features=64, out_features=64, bias=True)
    (1): Tanh()
    (2): Linear(in_features=64, out_features=1, bias=True)
  )
)

Optimizer loaded

U 1 | F 002048 | FPS 0659 | D 3 | rR:μσmM 0.07 0.18 0.00 0.59 | F:μσmM 9.1 24.3 0.0 81.0 | H 1.931 | V 0.007 | pL -0.035 | vL 0.009 | ∇ 0.048
U 2 | F 004096 | FPS 0695 | D 6 | rR:μσmM 0.12 0.26 0.00 0.85 | F:μσmM 20.9 49.7 0.0 189.0 | H 1.917 | V 0.011 | pL -0.022 | vL 0.010 | ∇ 0.049
U 3 | F 006144 | FPS 0666 | D 9 | rR:μσmM 0.15 0.27 0.00 0.85 | F:μσmM 43.1 94.3 0.0 354.0 | H 1.916 | V 0.001 | pL -0.011 | vL 0.002 | ∇ 0.025
…
